…
ri":"https://localhost:8080/"},"id":"rcWX_65Jdgyn","executionInfo":{"status":"ok","timestamp":1702098829173,"user_tz":-540,"elapsed":915,"user":{"displayName":"이한석","userId":"03743805133595309646"}},"outputId":"8a89ad3e-dbd1-492f-f864-7de40b495355"},"execution_count":null,"outputs":[{"output_type":"stream","name":"stdout","text":["Model: \"sequential_3\"\n","_________________________________________________________________\n"," Layer (type)                Output Shape              Param #   \n","=================================================================\n"," dense_11 (Dense)            (None, 50)                1450      \n","                                                                 \n"," batch_normalization_10 (Ba  (None, 50)                200       \n"," tchNormalization)                                               \n","                                                                 \n"," dropout_10 (Dropout)        (None, 50)                0         \n","                                                                 \n"," dense_12 (Dense)            (None, 32)                1632      \n","                                                                 \n"," batch_normalization_11 (Ba  (None, 32)                128       \n"," tchNormalization)                                               \n","                                                                 \n"," dropout_11 (Dropout)        (None, 32)                0         \n","                                                                 \n"," dense_13 (Dense)            (None, 20)                660       \n","                                                                 \n"," batch_normalization_12 (Ba  (None, 20)                80        \n"," tchNormalization)                                               \n","                                                                 \n"," dropout_12 (Dropout)        (None, 20)                0         \n","                                                                 \n"," dense_14 (Dense)            (None, 10)                210       \n","                                                                 \n"," batch_normalization_13 (Ba  (None, 10)                40        \n"," tchNormalization)                                               \n","                                                                 \n"," dropout_13 (Dropout)        (None, 10)                0         \n","                                                                 \n"," dense_15 (Dense)            (None, 1)                 11        \n","                                                                 \n","=================================================================\n","Total params: 4411 (17.23 KB)\n","Trainable params: 4187 (16.36 KB)\n","Non-trainable params: 224 (896.00 Byte)\n","_________________________________________________________________\n"]}]},{"cell_type":"code","source":["# def rmsle(y_true, y_pred)
…
ri":"https://localhost:8080/"},"id":"iTqMrx0n6fDh","executionInfo":{"status":"ok","timestamp":1702105864004,"user_tz":-540,"elapsed":768,"user":{"displayName":"이한석","userId":"03743805133595309646"}},"outputId":"16470191-ea1d-4496-92a7-9b8418bede49"},"execution_count":null,"outputs":[{"output_type":"stream","name":"stdout","text":["Model: \"sequential_8\"\n","_________________________________________________________________\n"," Layer (type)                Output Shape              Param #   \n","=================================================================\n"," gru_6 (GRU)                 (None, 1, 50)             12000     \n","                                                                 \n"," batch_normalization_30 (Ba  (None, 1, 50)             200       \n"," tchNormalization)                                               \n","                                                                 \n"," dropout_30 (Dropout)        (None, 1, 50)             0         \n","                                                                 \n"," dense_32 (Dense)            (None, 1, 32)             1632      \n","                                                                 \n"," batch_normalization_31 (Ba  (None, 1, 32)             128       \n"," tchNormalization)                                               \n","                                                                 \n"," dropout_31 (Dropout)        (None, 1, 32)             0         \n","                                                                 \n"," dense_33 (Dense)            (None, 1, 20)             660       \n","                                                                 \n"," batch_normalization_32 (Ba  (None, 1, 20)             80        \n"," tchNormalization)                                               \n","                                                                 \n"," dropout_32 (Dropout)        (None, 1, 20)             0         \n","                                                                 \n"," dense_34 (Dense)            (None, 1, 10)             210       \n","                                                                 \n"," batch_normalization_33 (Ba  (None, 1, 10)             40        \n"," tchNormalization)                                               \n","                                                                 \n"," dropout_33 (Dropout)        (None, 1, 10)             0         \n","                                                                 \n"," dense_35 (Dense)            (None, 1, 1)              11        \n","                                                                 \n","=================================================================\n","Total params: 14961 (58.44 KB)\n","Trainable params: 14737 (57.57 KB)\n","Non-trainable params: 224 (896.00 Byte)\n","_________________________________________________________________\n"]}]},{"cell_type":"code","source":["def rmsle_loss(y_true, y_
…
ame":"stdout","text":["Model: \"transformer_model\"\n","__________________________________________________________________________________________________\n"," Layer (type)                Output Shape                 Param #   Connected to                  \n","==================================================================================================\n"," input_2 (InputLayer)        [(None, 28)]                 0         []                            \n","                                                                                                  \n"," attention_2 (Attention)     (None, 28)                   1         ['input_2[0][0]',             \n","                                                                     'input_2[0][0]']             \n","                                                                                                  \n"," layer_normalization_2 (Lay  (None, 28)                   56        ['attention_2[0][0]']         \n"," erNormalization)                                                                                 \n","                                                                                                  \n"," dropout_37 (Dropout)        (None, 28)                   0         ['layer_normalization_2[0][0]'\n","                                                                    ]                             \n","                                                                                                  \n"," attention_3 (Attention)     (None, 28)                   1         ['dropout_37[0][0]',          \n","                                                                     'dropout_37[0][0]']          \n","                                                                                                  \n"," layer_normalization_3 (Lay  (None, 28)                   56        ['attention_3[0][0]']         \n"," erNormalization)                                                                                 \n","                                                                                                  \n"," dropout_38 (Dropout)        (None, 28)                   0         ['layer_normalization_3[0][0]'\n","                                                                    ]                             \n","                                                                                                  \n"," dense_39 (Dense)            (None, 64)                   1856      ['dropout_38[0][0]']          \n","                                                                                                  \n"," dropout_39 (Dropout)        (None, 64)                   0         ['dense_39[0][0]']            \n","                                                                                                  \n"," dense_40 (Dense)            (None, 32)                   2080      ['dropout_39[0][0]']          \n","                                                                                                  \n"," dropout_40 (Dropout)        (None, 32)                   0         ['dense_40[0][0]']            \n","                                                                                                  \n"," dense_41 (Dense)            (None, 16)                   528       ['dropout_40[0][0]']          \n","                                                                                                  \n"," dropout_41 (Dropout)        (None, 16)                   0         ['dense_41[0][0]']            \n","                                                                                                  \n"," dense_42 (Dense)            (None, 8)                    136       ['dropout_41[0][0]']          \n","                                                                                                  \n"," dense_43 (Dense)            (None, 1)                    9         ['dense_42[0][0]']            \n","                                                                                                  \n","==================================================================================================\n","Total params: 4723 (18.45 KB)\n","Trainable params: 4723 (18.45 KB)\n","Non-trainable params: 0 (0.00 Byte)\n","______________________________________
…
